moral/policies/test_with_one_target.pt (torch, 546981 bytes, 11 tensors)

l1.weight f4 [64, 5, 2, 2]
0	0x3b357d5b	0.0027693126
1	0x3e19e3af	0.1502826
2	0xbe5d663b	-0.21621029
3	0x3aaaa62f	0.0013019497
4	0x3d99da4c	0.0751234
5	0xbd5e2d7d	-0.0542426
6	0x3c70060a	0.014649877
7	0xbdc6bec5	-0.09704355
8	0xbdd30ecb	-0.10305556
9	0x3e2da89e	0.16958854
10	0x3e4f846d	0.2026536
11	0xbe7a754b	-0.24458806
12	0x3d3475ee	0.04405778
13	0x3ea221ee	0.3166651
14	0xbe0854a8	-0.13313544
15	0xbe6c92ad	-0.23102827
16	0xbe273266	-0.16327819
17	0x3d3e25da	0.046422817
18	0x3dba1ef2	0.090879336
19	0x3cea3a9b	0.028592398
20	0x3db0b495	0.08628193
21	0x3dca2b8f	0.098715894
22	0xbe3b70d9	-0.18304767
23	0xbd08da28	-0.033411175
24	0x3e02ad89	0.12761511
25	0x3e83b59c	0.25724494
26	0x3e906c59	0.28207663
27	0x3e30d5e3	0.17269091
28	0x3e0eb847	0.13937484
29	0x3df5f301	0.1200924
30	0x3d415b65	0.0472063
31	0x3dae1bf7	0.085014276
32	0x3dffa60c	0.12482843
33	0xbe3b140c	-0.18269366
34	0x3e5953b9	0.21223344
35	0xbdf50fcf	-0.11965906
36	0x3d362480	0.044468403
37	0x3d0c568d	0.03426223
38	0x3dc71f16	0.09722726
39	0xbe1b3b09	-0.15159239
40	0xbc17801d	-0.009246853
41	0x3dcf5024	0.101227075
42	0x3ddce226	0.10785322
43	0xbe782e1c	-0.2423634
44	0x3db6e51e	0.089304194
45	0x3db39558	0.087687194
46	0x3e68543e	0.22688386
47	0xbe160385	-0.1464978
48	0xbdad73c4	-0.08469346
49	0x3e43d891	0.19125582
50	0xbe395531	-0.18098904
51	0x3ebf69d5	0.3738543
52	0xbe2f68f2	-0.17129877
53	0xbe2a2316	-0.16614947
54	0x3ba24390	0.0049519017
55	0xbcd715f2	-0.026255582
56	0xbe74c195	-0.2390197
57	0xbdb46e22	-0.08810069
58	0xbd265a69	-0.040613566
59	0x3c1a256b	0.009408335
60	0x3d90b8a8	0.070664704
61	0xbe6a6798	-0.2289108
62	0x3cc19149	0.023628848
63	0x3d0de5c3	0.034642946
64	0x3da21cc8	0.07915646
65	0x3d8c30a9	0.06845219
66	0xbe193dc5	-0.1496497
67	0xbd03d8d0	-0.03218919
68	0x3ce2ecb2	0.027700756
69	0x3e8a02cb	0.26955256
70	0xbd03bc5d	-0.03216206
71	0x3e8bf634	0.27336276
72	0xbe8a6e0d	-0.27037087
73	0xbe5fc598	-0.2185272
74	0xbd7fddb9	-0.06246731
75	0xbe833ad1	-0.2563081
76	0x3c98e289	0.018662708
77	0xbda2cb1d	-0.07948897
78	0xbdd41f5e	-0.10357545
79	0x3d8f2c2d	0.06990848
80	0xbe7507a7	-0.239287
81	0x3ba78fbd	0.0051135705
82	0x3df5a9e4	0.11995295
83	0x3e5644d3	0.20924692
84	0xbdd0ace5	-0.10189227
85	0xbe2fcab5	-0.1716717
86	0x3e8b82a6	0.27248114
87	0xbe02baf6	-0.12766632
88	0xbe8f859b	-0.2803162
89	0xbe0adb06	-0.13560113
90	0x3ebb3860	0.36566448
91	0xbe523bf8	-0.20530689
92	0x3d466701	0.048438076
93	0xbe86ce20	-0.26329136
94	0xbcd79143	-0.026314383
95	0xbe059a3e	-0.1304712
96	0x3e2387bc	0.15969747
97	0xbd50ba98	-0.0509592
98	0xbd5b56e9	-0.05354968
99	0xbe3f60aa	-0.18689218
100	0xbe05eb7a	-0.13078108
101	0x3dd1ecec	0.102502674
102	0xbd8bb96a	-0.06822474
103	0xbd13ab04	-0.036051765
104	0xbd9b320f	-0.07577907
105	0x3e8b62be	0.27223772
106	0xbc72a698	-0.014810227
107	0xbe8d559c	-0.27604377
108	0xbedb2ac7	-0.42806074
109	0xbe0476d1	-0.1293595
110	0xbd107c03	-0.035274517
111	0xbe00d130	-0.12579799
112	0x3df318c6	0.118699595
113	0xbe653b31	-0.22385861
114	0x3c890123	0.016724175
115	0x3d90489f	0.070451014
116	0xbd5fda52	-0.054651566
117	0xbe920332	-0.28518063
118	0x3e0ce71c	0.13760036
119	0x3e56666a	0.20937505
120	0xbd132d61	-0.03593195
121	0xbba0d536	-0.004908229
122	0xbe98698e	-0.29768032
123	0x3df58ce9	0.11989767
124	0xbe2ae008	-0.16687024
125	0x3e6713f2	0.22566202
126	0x3d5bf93a	0.053704478
127	0x3d941b41	0.07231761
128	0xbe2ac1d2	-0.16675499
129	0xbe3a16e6	-0.18172798
130	0x3e8a253b	0.2698153
131	0x3eb82801	0.3596802
132	0xbd8b67bb	-0.068068944
133	0xbd2801a7	-0.0410172
134	0xbd93902e	-0.072052345
135	0xbe854a99	-0.26033476
136	0x3c85d0e6	0.016334962
137	0x3d6697e6	0.056297205
138	0x3e07c29c	0.13257831
139	0xbe88f727	-0.26751062
140	0xbdc228ac	-0.09480414
141	0xbe128653	-0.14309053
142	0x3da2d2b2	0.07950343
143	0xbe28d7af	-0.16488527
144	0x3e35b9b5	0.17746623
145	0x3e87c217	0.26515266
146	0x3dbb075e	0.091322646
147	0x3e9c21d9	0.30494574
148	0x3e0c7035	0.13714679
149	0x3eab0529	0.33402374
150	0x386f7590	5.709153e-05
151	0x3dc7de25	0.097591676
152	0x3c2389ea	0.009981612
153	0xbdda2fd3	-0.10653653
154	0xbe90efa3	-0.28307828
155	0x3cfb6d2c	0.030691706
156	0xbdf867c8	-0.1212917
157	0xbd2d1807	-0.042259242
158	0xbe826651	-0.25468686
159	0x3d408be1	0.0470084
160	0xbe8dd385	-0.2770044
161	0x3dbf3d19	0.09337825
162	0xbe83727f	-0.2567329
163	0x3e0b803a	0.13623133
164	0x3d98df97	0.074645214
165	0xbdaad56f	-0.083414905
166	0x3e35d382	0.17756465
167	0xbd8b5a3e	-0.06804322
168	0xbe81762e	-0.25285476
169	0xbe12317e	-0.14276692
170	0xbdd58b73	-0.104269885
171	0xbe5323e1	-0.20619155
172	0xbe906ac0	-0.28206444
173	0xbd1d8666	-0.03845825
174	0xbd212c5f	-0.039348956
175	0x3c726c20	0.014796287
176	0x3da3a75f	0.07990908
177	0xbe41742a	-0.1889197
178	0x3df6247c	0.120186776
179	0x3e25995e	0.16171786
180	0x3d258a54	0.040415123
181	0x3d34a673	0.04410405
182	0x3dd0bbcc	0.101920694
183	0xbd356122	-0.044282086
184	0x3da36ec7	0.079801135
185	0x3e2e8a77	0.17045008
186	0x3dec30bb	0.11532732
187	0xbec6113e	-0.3868503
188	0x3d4aa430	0.049472988
189	0x3eaeecb1	0.34164956
190	0x3d2b5c18	0.041835874
191	0xbd82eb8a	-0.06392582
192	0x3bd35a15	0.0064499476
193	0xbd6f8cb6	-0.0584838
194	0x3e0e63a7	0.13905202
195	0xbe6b7537	-0.22993933
196	0x3e029fad	0.12756224
197	0x3d9b1683	0.07572653
198	0xbe5efc1e	-0.21775863
199	0xbe042e7a	-0.12908354
200	0xbe7dc897	-0.2478355
201	0xbcb8d192	-0.022560868
202	0xbe409a39	-0.18808831
203	0x3e1864bf	0.14882182
204	0xbe4276f8	-0.18990695
205	0xbe5b3c3b	-0.21409695
206	0xbddfbe78	-0.10925001
207	0xbe1653f1	-0.14680459
208	0xbbf9cb49	-0.0076231104
209	0xbe38611b	-0.18005793
210	0xbc6c902b	-0.014438669
211	0xbd8a7bd6	-0.06761901
212	0x3e19fa6e	0.15036938
213	0xbe44f4ee	-0.19234058
214	0x3e2a0133	0.1660202
215	0x3e551aab	0.20810954
216	0x3e0aa203	0.13538365
217	0x3ba8b558	0.005148571
218	0x3dc68a11	0.09694303
219	0x3d103473	0.03520627
220	0xbda0c928	-0.078508675
221	0xbd868385	-0.06568054
222	0xbe487da1	-0.19579174
223	0xbe1a8baf	-0.15092348
224	0xbd88748b	-0.06662854
225	0x3c6c3b89	0.014418491
226	0x3c61cc89	0.013781675
227	0xbde0fd4a	-0.10985811
228	0xbe44a35f	-0.19202946
229	0xbe50e7c1	-0.20400907
230	0x3e97649e	0.29568952
231	0x3e9d43cf	0.30715796
232	0x3d78ded9	0.0607594
233	0x3d9ccf7d	0.07656763
234	0x3e541027	0.20709287
235	0x3d602611	0.054723803
236	0xbc23c4ee	-0.009995682
237	0xbe1d90a3	-0.15387206
238	0xbd9d26b6	-0.07673399
239	0x3d862574	0.06550112
240	0xbe645010	-0.22296166
241	0xbe505edb	-0.20348684
242	0x3dc64ff6	0.0968322
243	0x3d513398	0.051074594
244	0xbd0e9bc9	-0.034816537
245	0x3eba610f	0.36402175
246	0x3e09473f	0.13406084
247	0x3db87b3f	0.09007882
248	0xbeb6f0c6	-0.3573057
249	0xbe9e7aa8	-0.30952954
250	0xbef44845	-0.47711387
251	0xbe79179c	-0.24325413
252	0xbdf36860	-0.11885142
253	0x3d2180d3	0.039429497
254	0xbb63dc29	-0.0034768677
255	0x3e0e9bc1	0.13926603

l1.bias f4 [64]
0	0xbd36a21b	-0.04458819
1	0xbe6c34a5	-0.23066957
2	0xbe5dc1ff	-0.21656035
3	0xbd841653	-0.064495705
4	0xbe83fcfd	-0.25778952
5	0xbc52561b	-0.012837912
6	0xbdd766c3	-0.10517647
7	0x3c495fd5	0.012290915
8	0xbdc369e8	-0.095416844
9	0xbe548bff	-0.2075653
10	0x3c86f4f7	0.01647423
11	0xbd9dff24	-0.0771468
12	0x3e4480b7	0.19189726
13	0xbcbecb1f	-0.023290215
14	0x3daa5935	0.08317796
15	0x3db2c92d	0.087297775
16	0xbd7af352	-0.061267205
17	0xbe47bd9f	-0.19505928
18	0xbc7791e6	-0.0151104685
19	0x3e3b267e	0.18276402
20	0xbcf8df07	-0.030379785
21	0xbdb54d5b	-0.08852645
22	0xbe7605f3	-0.24025707
23	0x3d1eae51	0.03874046
24	0x3c8b0132	0.016968343
25	0xbe0fb2e4	-0.14033085
26	0xbb9b8777	-0.0047463733
27	0xbd9d009e	-0.07666133
28	0x3d74cd14	0.05976589
29	0xbe330f90	-0.17486405
30	0xbdfc7a8b	-0.12328061
31	0xbe3b1cfb	-0.18272774
32	0xbe05c6ee	-0.13064167
33	0xbd0bcc69	-0.034130488
34	0x3d216fdc	0.039413318
35	0xbe0aa98d	-0.13541241
36	0xbd85ca77	-0.06532758
37	0xbd92c552	-0.07166542
38	0xbde6aa55	-0.11262957
39	0xbe188c0d	-0.14897175
40	0xbe23f188	-0.16010106
41	0xbe08728a	-0.13324943
42	0x3c9b83a8	0.018983677
43	0xbe2e2720	-0.17007113
44	0xbc121c30	-0.008917853
45	0xbe73a4fa	-0.23793402
46	0xbe365ec1	-0.17809583
47	0xbe77d842	-0.2420359
48	0xbcec9d0b	-0.028883478
49	0xbe238bf4	-0.15971357
50	0xbe28137a	-0.1641368
51	0xbd901468	-0.07035142
52	0x3d044737	0.03229448
53	0x3d92d6cc	0.071698755
54	0xbe2cb885	-0.16867264
55	0xbe0d7531	-0.13814236
56	0xbe0528c4	-0.13003832
57	0xbc9dc3b6	-0.019258361
58	0xbe55c7a9	-0.20876946
59	0xbbab45ff	-0.00522685
60	0x3e021bb9	0.12705888
61	0xbd82104e	-0.06350766
62	0x3e0a284d	0.13491936
63	0x3d791bca	0.060817517

l2.weight f4 [256, 64, 2, 2]
0	0xbdf40cec	-0.11916527
1	0xbdbebdd4	-0.093135506
2	0xbcb7d709	-0.022441404
3	0x3c74efbb	0.014949734
4	0xbe291bdf	-0.16514538
5	0xbe33a27b	-0.1754245
6	0x3cb2938c	0.021798871
7	0x3db4de44	0.08831456
8	0xbcd1532f	-0.02555236
9	0x3d91aefd	0.071134545
10	0xb9d372c5	-0.00040330566
11	0xbe1c97ba	-0.15292254
12	0x3aa171c3	0.0012317229
13	0xbc431639	-0.011907154
14	0xbd64d7d4	-0.055869892
15	0xbd6b2e79	-0.057417367
16	0xbd5d7491	-0.054066245
17	0xbdf06707	-0.11738401
18	0x3c5faf29	0.013652601
19	0xbc19a8d4	-0.009378631
20	0xbd48a11c	-0.04898177
21	0xbdf07be0	-0.11742377
22	0xbd417697	-0.047232237
23	0xbd7a7817	-0.061149683
24	0xbd22682a	-0.03965012
25	0xbdb92d4e	-0.09041844
26	0x3e01a06a	0.1265885
27	0xbd82595a	-0.06364699
28	0xbdad6f86	-0.08468537
29	0x3d41e5e6	0.04733839
30	0x3d032a44	0.03202273
31	0x3d9063cb	0.07050284
32	0x3d209a1c	0.03920947
33	0xbe2d2961	-0.16910316
34	0xbe516f66	-0.20452651
35	0xbc887c8f	-0.016660957
36	0xbc1dd874	-0.009634126
37	0xbc4377cd	-0.011930418
38	0xbd41c23b	-0.047304373
39	0x3e0ce41e	0.13758895
40	0xbcb032ce	-0.0215086
41	0xbd52d40c	-0.051471755
42	0xbe05a4c5	-0.13051136
43	0xbbb43afa	-0.0055001946
44	0x3d30d43a	0.043171145
45	0xbd6368c5	-0.055519838
46	0x3d0caf49	0.034346852
47	0xbe05e493	-0.13075475
48	0xbd8a446f	-0.06751334
49	0xbd8d2e32	-0.06893577
50	0xbe0718f3	-0.13193111
51	0xbd5a8c69	-0.05335656
52	0x3d6e504f	0.058182057
53	0x3cd4b971	0.025967332
54	0x3b429459	0.0029690473
55	0xbcd80840	-0.026371121
56	0xbd9eac13	-0.07747664
57	0xbd48139c	-0.048846826
58	0x3da5649a	0.08075829
59	0xbdd48050	-0.10376036
60	0x3c91e762	0.017810527
61	0xbdb3a5b1	-0.087718375
62	0xbcd561d9	-0.026047634
63	0xbd878777	-0.06617635
64	0xbddc2be3	-0.10750558
65	0xbe1f6248	-0.15564835
66	0x3e619220	0.22028399
67	0x3e647736	0.223111
68	0xbdd89a9e	-0.10576366
69	0x3d9b2769	0.07575876
70	0x3b045094	0.002018963
71	0xbde3f391	-0.11130441
72	0xbdee439f	-0.116339915
73	0x3db1c7fe	0.086807236
74	0xbd28ba9a	-0.041193582
75	0x3d20c5e9	0.03925124
76	0xbda6a2d5	-0.081365265
77	0xbd10977c	-0.035300717
78	0xbe0424fd	-0.12904735
79	0xbd97db51	-0.07414878
80	0xbdc4cc40	-0.0960927
81	0xbe262399	-0.16224517
82	0xbd73df54	-0.059539154
83	0x3e03c5f1	0.12868477
84	0xbcf22ea8	-0.029563263
85	0xbdbc86b5	-0.09205381
86	0xbc9d7dcd	-0.019225026
87	0xbe93ceaf	-0.28868625
88	0xbdb21683	-0.086957
89	0x3dfc763f	0.12327241
90	0xbd8491fa	-0.06473155
91	0xbd5e2a89	-0.054239783
92	0x3b9187d2	0.00444124
93	0xbdad5e3d	-0.0846524
94	0xbdb19af5	-0.08672134
95	0xbce77fb6	-0.02825914
96	0xbdde5a57	-0.10857075
97	0xbdf13895	-0.1177837
98	0xbd9522b6	-0.07282011
99	0x3c5c3054	0.013439257
100	0xbdbb3ff3	-0.09143057
101	0x3d9148fb	0.07093998
102	0x3b222fca	0.0024747723
103	0x3e23f442	0.16011146
104	0x3d763523	0.06010927
105	0xbd8eee4b	-0.069790445
106	0xbbc26d78	-0.00593346
107	0x3dbe62fb	0.09296223
108	0xbd3ee890	-0.046608508
109	0x3d2aaaef	0.04166692
110	0x3d653e0a	0.05596737
111	0x3cdb377d	0.026759857
112	0x3cdac5a5	0.026705572
113	0xbbf83bca	-0.007575487
114	0xbdf26867	-0.118363194
115	0xbdec30c2	-0.11532737
116	0x3af7a638	0.0018894142
117	0x3d60df3c	0.054900393
118	0xbc23042a	-0.009949723
119	0xbe0f1966	-0.13974532
120	0xbdb83bae	-0.08995758
121	0xbd479f0c	-0.048735663
122	0x3b6884c0	0.0035479516
123	0xbde11d14	-0.10991874
124	0xbdc13fcf	-0.09435999
125	0xbe0392f3	-0.12849025
126	0x3d99411c	0.07483122
127	0x3d3403a2	0.043948777
128	0xbe15d332	-0.14631346
129	0xbdad8d77	-0.08474248
130	0x3dcc7a89	0.09984309
131	0x3e3823af	0.17982362
132	0x3d0c572e	0.03426283
133	0xbcbb9d7a	-0.02290224
134	0xbd8262e0	-0.06366515
135	0x3d469c39	0.04848883
136	0xbda0fc87	-0.07860666
137	0xbd17a04e	-0.037018113
138	0xbe06334d	-0.13105507
139	0xbd29c0d0	-0.041443646
140	0xbdff9cd8	-0.124810874
141	0xbdd5b47d	-0.10434816
142	0xbe0f506f	-0.13995527
143	0x3d8861a1	0.06659246
144	0x3b1a8b70	0.0023581646
145	0x3d928448	0.07154137
146	0x3d281ab8	0.041041106
147	0x3cd60542	0.026125554
148	0xbe0c7410	-0.1371615
149	0xbe1b71c1	-0.15180112
150	0x3d688054	0.05676301
151	0x3e2af6e8	0.1669575
152	0xbdce86e2	-0.100843206
153	0xbe0d575a	-0.13802853
154	0x3c83c70d	0.016086126
155	0x3dccd6ed	0.10001931
156	0xbd8a6c76	-0.067589685
157	0xbdaa7819	-0.08323688
158	0xbe219753	-0.15780382
159	0x3e28b802	0.16476443
160	0xbe192771	-0.14956452
161	0x3d900c19	0.070335574
162	0x3cb9dad6	0.022687357
163	0x3c903a24	0.017605849
164	0xbdb0aaee	-0.08626352
165	0xbe0fb76b	-0.14034812
166	0x3db14631	0.08655966
167	0x3e448d51	0.19194533
168	0xbd39efe5	-0.045394797
169	0xbbd73191	-0.006567188
170	0xbd8cea34	-0.06880608
171	0xbcae57b6	-0.021282058
172	0xbcf1b0fb	-0.029503336
173	0xbe063e6d	-0.13109751
174	0xbe0d1fcd	-0.13781662
175	0x3d80ca94	0.06288639
176	0xbdd34f19	-0.10317821
177	0x3c5ead26	0.0135910865
178	0x3d6df1fd	0.058092106
179	0x3da784f9	0.081796594
180	0xbe17f1ff	-0.14838408
181	0xbdae0cf9	-0.08498568
182	0x3c2abb14	0.010420579
183	0x3d592048	0.0530093
184	0xbe393aed	-0.18088885
185	0xbd8b3414	-0.067970425
186	0x3d2676be	0.040640585
187	0x3d6fee69	0.058576975
188	0xbd70c78d	-0.058784056
189	0xbc3072b3	-0.010769534
190	0xbbe26975	-0.006909544
191	0x3e17885f	0.14798115
192	0xbda05ec7	-0.07830577
193	0xbda8fc9a	-0.08251305
194	0xbd0b0315	-0.033938486
195	0xbce8ade0	-0.028403223
196	0x3c6d1a77	0.014471642
197	0x3d160761	0.03662813
198	0xbb864c14	-0.0040984247
199	0xbd8bf18d	-0.068331815
200	0xbdd79b50	-0.105276704
201	0xbe12e63b	-0.14345638
202	0xbd7a67e8	-0.06113425
203	0x3dcb9ef0	0.09942424
204	0xbdbebf64	-0.093138486
205	0x3d2a0d25	0.04151644
206	0x3e017581	0.1264248
207	0x3e1848b6	0.14871487
208	0xbd22e093	-0.039764952
209	0xbcd7f11d	-0.026360089
210	0xbbbbaf7e	-0.0057277074
211	0xbd0e757b	-0.034780007
212	0xbd83c558	-0.06434125
213	0xbd2459ec	-0.04012482
214	0xbd603e5e	-0.054746978
215	0xbc36244f	-0.011117055
216	0xbc5796e8	-0.013158537
217	0xbdf81879	-0.12114043
218	0xbdbd34ff	-0.09238624
219	0x3e09ad0b	0.13444917
220	0xbd8889a6	-0.06666879
221	0xbd06a8a5	-0.032875676
222	0x3dec43fe	0.11536406
223	0xbd8cccd7	-0.068750076
224	0xbd59e088	-0.053192645
225	0xbdd296c8	-0.102826655
226	0xbdaf75ec	-0.08567414
227	0x3d5255f2	0.051351495
228	0xbdc19d88	-0.09453875
229	0xbdb1db01	-0.0868435
230	0xbdad9c2a	-0.084770516
231	0x3d13b224	0.03605856
232	0xbdb42b2a	-0.087972954
233	0xbdb9980e	-0.09062205
234	0x3d5e5f3b	0.054290038
235	0xbdde1d7f	-0.1084547
236	0xbe05e9ea	-0.13077512
237	0x3c833c04	0.016019829
238	0x3c28ed5c	0.010310497
239	0xbe0f4334	-0.1399048
240	0xbd12c6be	-0.035834067
241	0x3d72853f	0.059209105
242	0xbda3f317	-0.0800535
243	0xbd6bcb8d	-0.057567168
244	0xbd8012f2	-0.062536135
245	0xbbdf5550	-0.00681559
246	0x3c3f57ce	0.011678649
247	0x3daf7350	0.08566916
248	0xbd53e2a6	-0.05172982
249	0xbd5a1602	-0.053243645
250	0xbd41bc6c	-0.047298834
251	0x3dda728f	0.106663816
252	0x3dda0db4	0.10647145
253	0x3d9c69dd	0.07637379
254	0x3d305e15	0.043058474
255	0xbcac399b	-0.021023562

l2.bias f4 [256]
0	0xbda2ff5f	-0.079588644
1	0xbd30a8b8	-0.043129653
2	0xbc9e8483	-0.019350296
3	0x394b4834	0.00019386486
4	0xbcb472ad	-0.022027338
5	0xbd850b82	-0.064963356
6	0xbc3d57ee	-0.011556609
7	0xbdc72e3e	-0.09725617
8	0xbc637c25	-0.013884579
9	0xbd43b43a	-0.0477793
10	0xbcd639d4	-0.026150621
11	0xbc957033	-0.018241977
12	0x3d54e5d2	0.051976986
13	0xbdc5e292	-0.096623555
14	0xbd2cc393	-0.0421787
15	0xbd489d8b	-0.04897837
16	0x3aa33c07	0.0012453803
17	0x3b898a9f	0.004197433
18	0xbc7b288c	-0.015329491
19	0x3d880296	0.06641118
20	0xbdac5da8	-0.08416301
21	0xbd7e6723	-0.062110078
22	0xbcf13ffa	-0.029449452
23	0xbd5e2ee7	-0.05424395
24	0xbcdeed6d	-0.027212823
25	0xbdb737eb	-0.089462124
26	0xbd1ea6cc	-0.03873329
27	0xbc2b4135	-0.010452558
28	0x3d46cd85	0.048535842
29	0xbd735f16	-0.059416853
30	0xbcc6a392	-0.024247918
31	0xbdb1a3a0	-0.08673787
32	0xbd365203	-0.044511806
33	0x3cd6010a	0.026123542
34	0xbb882bba	-0.0041556032
35	0xbcad97eb	-0.021190604
36	0x3c446074	0.011985887
37	0xbd1c23c0	-0.03812003
38	0xbce7d3ac	-0.028299175
39	0xbc5759c7	-0.013143963
40	0xbd195c28	-0.037441403
41	0x3b8be144	0.004268797
42	0xbca91a15	-0.02064232
43	0xbcf550c8	-0.029945746
44	0xbd9313e9	-0.07181532
45	0xbcbe58a1	-0.02323562
46	0xbd2b8b57	-0.04188093
47	0xbd452842	-0.048134096
48	0xbd93c698	-0.07215613
49	0xbcc27a4c	-0.023739956
50	0xbc9aac6a	-0.018881042
51	0xbd429668	-0.04750672
52	0x3a81c534	0.000990069
53	0x3c850553	0.01623789
54	0xbd297f54	-0.041381195
55	0xbdb5a1c7	-0.08868747
56	0xbdd0031b	-0.10156842
57	0x3bbf7d3d	0.005843787
58	0xbc6cd33e	-0.014454661
59	0xbb522656	-0.0032066307
60	0x3cc7cdc6	0.024390113
61	0xbdc4fa1d	-0.09618018
62	0xbd32592d	-0.043542076
63	0xbd7ba0ed	-0.061432768
64	0xbc1bfd6d	-0.009520871
65	0xbc56a054	-0.013099749
66	0xbc9f2e32	-0.019431207
67	0x3d25a4f1	0.040440504
68	0xbd14791c	-0.03624831
69	0x3ccc4ee4	0.024939962
70	0xbd88e545	-0.06684355
71	0xbd9c14c9	-0.07621152
72	0xbd687313	-0.05675037
73	0xbd20935d	-0.039203037
74	0x3c8e9aab	0.017407736
75	0xbcbba511	-0.022905858
76	0x3c644714	0.013932962
77	0xbd66aa7d	-0.056314934
78	0xbd513777	-0.051078286
79	0xbd94215a	-0.07232924
80	0xbd485ae1	-0.048914794
81	0xbd9ebfdf	-0.0775144
82	0xbd73b047	-0.059494283
83	0xbd0a5a21	-0.03377736
84	0xbc66d097	-0.014087818
85	0xbd854b10	-0.06508458
86	0xbc476227	-0.012169397
87	0xbd3ee18c	-0.046601817
88	0xbdc4a08a	-0.09600933
89	0xbdd9c4f7	-0.10633271
90	0x3c8751b3	0.01651845
91	0xbd7231c4	-0.05912949
92	0xbd9995ad	-0.074992515
93	0xbc835467	-0.016031457
94	0xbd5fbe6a	-0.054624952
95	0xbd89454c	-0.067026705
96	0x3d21730c	0.039416358
97	0xbcc17e1f	-0.02361971
98	0xbcf2c5df	-0.029635368
99	0xbcd18e4a	-0.025580544
100	0xbdb81334	-0.08988038
101	0xbdbf3842	-0.09336902
102	0xbce5f559	-0.028071092
103	0xbc2f68b0	-0.010706112
104	0xbb95af07	-0.004567984
105	0xbc959ef1	-0.018264266
106	0xbddf0de7	-0.108913235
107	0x3c911d40	0.017714143
108	0xbdb7996d	-0.089648105
109	0x3c1a7b7a	0.009428853
110	0xbc0f49c9	-0.008745619
111	0xbd4ea168	-0.050446898
112	0xbd981f2b	-0.0742782
113	0x3d2863c3	0.041110765
114	0xbd511ffa	-0.051055886
115	0xbd7fb3f9	-0.062427495
116	0xbcc3656d	-0.023852075
117	0xbd126eb9	-0.035750125
118	0xbc40da4f	-0.011770799
119	0xbcb20137	-0.021729095
120	0xbcab7e3a	-0.020934213
121	0xbce6e7f2	-0.028186772
122	0xbdb4e1a6	-0.088321015
123	0x3d4de2cc	0.05026512
124	0xba79a950	-0.0009523826
125	0xbd998d4f	-0.074976556
126	0xbd92690b	-0.071489416
127	0xbdda70a8	-0.10666019
128	0x3c81ff27	0.015868736
129	0x3c4d371d	0.012525347
130	0xbcfb62a2	-0.03068668
131	0xbd3e9927	-0.046532776
132	0xbd224b2b	-0.039622467
133	0xbd8417d3	-0.064498566
134	0xbdcd28e6	-0.100175664
135	0xbc7276a5	-0.014798795
136	0xbd2d7eb2	-0.042357154
137	0x3cb94bc8	0.022619143
138	0xba3776b0	-0.0006998582
139	0xbca9744d	-0.02068534
140	0x3cb5f0f0	0.022209615
141	0xbddb6364	-0.10712317
142	0xbd82b0f0	-0.063814044
143	0xbdae043b	-0.08496901
144	0xbdb63bc1	-0.08898116
145	0x3ce95b80	0.028486013
146	0xbd691a09	-0.056909595
147	0xbd3e1352	-0.046405144
148	0x3d852ed5	0.06503073
149	0xbd0eac2c	-0.034832165
150	0xbd519d4d	-0.051175404
151	0xbbc1ec2a	-0.0059180455
152	0xbd487826	-0.048942707
153	0xbdc9ac6f	-0.09847342
154	0xbd9ea5f8	-0.077465
155	0x3a8d8901	0.0010798277
156	0xbb2815ea	-0.0025647827
157	0xba74c09e	-0.00093365635
158	0xbc8b2787	-0.016986622
159	0x3c8ee7c6	0.017444503
160	0xbd80cefc	-0.06289479
161	0x3c6e8081	0.014557005
162	0xbd1a2bc1	-0.037639383
163	0xbd88ee61	-0.06686092
164	0xbd9618e2	-0.07328965
165	0xbdc747b3	-0.097304724
166	0xbb64fec3	-0.003494189
167	0xbdb03d7d	-0.08605478
168	0xbdaa666a	-0.08320315
169	0xbd2fc2ea	-0.042910494
170	0xbd3b7ad6	-0.045771442
171	0x3b633bcf	0.00346731
172	0xbd7f62e3	-0.062350165
173	0xbd94ebf8	-0.0727157
174	0xbdad6094	-0.084656864
175	0xbc0b41a4	-0.008499537
176	0xbdc2f186	-0.09518723
177	0x3bec0bef	0.007203571
178	0xbdbefd5e	-0.0932567
179	0xbdb080db	-0.08618327
180	0xbd132088	-0.035919696
181	0xbd8ff7c6	-0.07029681
182	0xbd54c7ce	-0.05194836
183	0xbce9f379	-0.02855848
184	0xbd1c3cff	-0.038144108
185	0xbd78ae63	-0.060713183
186	0xbd72721c	-0.059190854
187	0xbc46e178	-0.012138717
188	0xbb70f03f	-0.0036764292
189	0xbd768d93	-0.06019361
190	0xbdbf3a47	-0.093372874
191	0x3cf93ae8	0.030423597
192	0xbdc1da68	-0.09465486
193	0xbd196a6c	-0.037455007
194	0xbd044f98	-0.03230247
195	0xbd9423f7	-0.07233422
196	0xbd9ce5ba	-0.07661004
197	0xbd38de9e	-0.04513418
198	0xbd0cb135	-0.034348685
199	0x3d04860a	0.032354392
200	0xbd6ed5b2	-0.058309264
201	0x3bde1cad	0.0067783208
202	0xbc762e5a	-0.0150256995
203	0xbdde9997	-0.10869139
204	0x3bf059f9	0.0073349443
205	0xbd1a2ce9	-0.037640486
206	0xbdd82be5	-0.10555247
207	0xbd923fc3	-0.07141068
208	0xbdd29dd6	-0.10284011
209	0xbd3e4787	-0.046454933
210	0xbcf04160	-0.029328048
211	0xbd406185	-0.046968002
212	0xbd944264	-0.072392255
213	0xbdbae4d0	-0.09125674
214	0x3cafa76a	0.021442134
215	0xbc78747a	-0.015164489
216	0xbb905e9f	-0.004405811
217	0x3d0e2556	0.034703575
218	0xbc557990	-0.013029471
219	0xbd989d56	-0.074518844
220	0xbd9a23c0	-0.0752635
221	0xbd1a014a	-0.037598886
222	0xbd6966dd	-0.056982864
223	0x3c062b26	0.008188998
224	0x3b11ac2b	0.0022227864
225	0xbddda1f9	-0.108219095
226	0xbd5f7fb3	-0.054565143
227	0xbdb951a2	-0.09048773
228	0xbd9d42a5	-0.07678727
229	0xbc0e064c	-0.0086684935
230	0x3d772714	0.060340002
231	0x3d8353a4	0.064124376
232	0xbcdb5887	-0.026775612
233	0xbd89a157	-0.06720226
234	0xbcdc665c	-0.026904278
235	0xbd0b5c7e	-0.034023754
236	0xbd83c05d	-0.06433175
237	0xbd27ad37	-0.040936675
238	0xbd8f00d2	-0.06982578
239	0xbdc78c25	-0.09743527
240	0xbcbc7bd2	-0.02300826
241	0xbd87b12e	-0.06625591
242	0xbd911126	-0.07083349
243	0x3d0a9954	0.03383763
244	0xbd8a22f0	-0.06744945
245	0xbc90ba55	-0.017666975
246	0x3caa49f7	0.020787222
247	0xbce06217	-0.027390523
248	0xbbd35599	-0.006449413
249	0xbdb0439a	-0.08606644
250	0xbcbdf082	-0.023185972
251	0xbcd4b4d2	-0.025965128
252	0xbddbfd88	-0.107417166
253	0xbdc7e98b	-0.09761342
254	0xbc54d9cf	-0.012991383
255	0xbddc3182	-0.1075163

actor_l3.weight f4 [32, 256, 2, 2]
0	0x3d28674d	0.04111414
1	0xbd2d0dc5	-0.04224946
2	0xbd59a058	-0.05313143
3	0xbb9a8d33	-0.0047165393
4	0xbda51a51	-0.0806166
5	0xbca7ddf0	-0.02049157
6	0xbd168fa3	-0.036758076
7	0xbc98cb0e	-0.018651512
8	0xbbf1be54	-0.007377425
9	0xbc8860c9	-0.016647713
10	0xbc9b2d60	-0.018942535
11	0xbdd16dc4	-0.10226014
12	0xbd620492	-0.05518014
13	0xbd7ac423	-0.061222207
14	0x3d24f34b	0.040271085
15	0xbc7ac07f	-0.015304684
16	0xbd22e04b	-0.039764684
17	0x3b3482e6	0.0027543842
18	0x3d4a038e	0.049319796
19	0x3c443669	0.011975863
20	0xbd2f60a1	-0.042816762
21	0xbda52f4a	-0.0806566
22	0x3c072fd3	0.008251148
23	0x3d0fbd90	0.03509289
24	0x3d55f68e	0.052237086
25	0x3d827fbd	0.063720204
26	0x3dad936b	0.08475383
27	0x3c42201a	0.011848474
28	0xbccecec7	-0.025245083
29	0xbd817287	-0.063206725
30	0xbd723062	-0.059128173
31	0xbce07cd1	-0.027403267
32	0xbb4751df	-0.003041379
33	0xbcc3fe1b	-0.023924878
34	0xbd9e9125	-0.07742528
35	0xbdad3471	-0.08457268
36	0x3d9031e9	0.070407696
37	0x3c8a2f34	0.016868211
38	0xbdf2248c	-0.11823377
39	0xbd59636b	-0.053073328
40	0xbd93108c	-0.071808904
41	0xbb902bdb	-0.004399759
42	0xbd54bc8f	-0.051937636
43	0x3bb38901	0.0054789786
44	0xbccc5936	-0.024944883
45	0xbd0f32a5	-0.034960408
46	0xbd2e3b77	-0.04253718
47	0xbd7bbd30	-0.06145972
48	0xbddac1ad	-0.10681472
49	0xbda1c2ba	-0.07898469
50	0xbc60737b	-0.013699408
51	0xbda4ac0c	-0.08040628
52	0xbc5195fe	-0.012792109
53	0xbcab4749	-0.020908015
54	0xbcfdb5d4	-0.030970491
55	0x3cf52d0c	0.029928707
56	0xbcd92008	-0.026504532
57	0x3a8e4919	0.0010855525
58	0xbc971269	-0.018441396
59	0x3db449fa	0.088031724
60	0xbb9b6bc8	-0.004743073
61	0x3cbe8902	0.02325869
62	0x3ba6f808	0.0050954856
63	0xbcb5d3a9	-0.022195654
64	0xbd0127a8	-0.03153196
65	0xbd61d139	-0.05513117
66	0x3d3c50e4	0.04597558
67	0xbdb83603	-0.08994677
68	0x3dbdc767	0.092665486
69	0x3d0bd771	0.034141008
70	0x3c20ff2d	0.009826464
71	0x3d67bb35	0.05657502
72	0x3d3acca8	0.04560533
73	0xbd8fac7d	-0.070153214
74	0xbd86646a	-0.06562121
75	0x3d2fd71c	0.042929754
76	0xbb7277d9	-0.0036997704
77	0xbbf1f43f	-0.0073838527
78	0xbbb843d8	-0.005623322
79	0xbd4f2b98	-0.050578684
80	0x3da5d49c	0.08097193
81	0x3dc307b0	0.09522951
82	0x3d5b3c83	0.053524505
83	0x3dac3be2	0.08409859
84	0xbd4ca0cb	-0.04995803
85	0x3db6ccea	0.08925803
86	0x3d3e9ece	0.046538167
87	0x3be1ceb5	0.0068910965
88	0x3a8d5592	0.0010782948
89	0xbd5da68d	-0.054113913
90	0xbcbaddb0	-0.022810787
91	0x3d285d8a	0.04110483
92	0xbd91ee20	-0.07125497
93	0xbc8eb452	-0.017419968
94	0xbd8c828e	-0.06860839
95	0x3c129068	0.008945562
96	0x3cc8ade1	0.024496974
97	0xbcedffe1	-0.029052677
98	0xbc92b4a6	-0.017908406
99	0x3d78fc4e	0.06078749
100	0xbd68dcce	-0.0568512
101	0xbd988c0e	-0.07448588
102	0x3c59c866	0.013292408
103	0xbe1433e3	-0.14472918
104	0xbc51db0a	-0.012808571
105	0xbdb0cb13	-0.08632483
106	0x3d8c0c7f	0.06838321
107	0x3c53b35d	0.0129211815
108	0x3daf6527	0.08564215
109	0x3c589dec	0.013221245
110	0x3e09d141	0.1345873
111	0xbd1098ed	-0.03530209
112	0x3b22c116	0.0024834326
113	0x3d5ad4f9	0.053425763
114	0x3d76d6ab	0.060263317
115	0x3d063b71	0.03277153
116	0xbe0fbdd5	-0.14037259
117	0x3c82d4bd	0.015970582
118	0xbd0a6cf8	-0.033795327
119	0xbd64c440	-0.05585122
120	0x3dd1b85e	0.102402434
121	0xbde12de3	-0.1099508
122	0x3d4c1bce	0.049831204
123	0xbdabff48	-0.083983004
124	0x3a74d1c7	0.00093391206
125	0x3c39d59e	0.011342434
126	0x3c174ac8	0.009234138
127	0x3d9655e2	0.073405996
128	0xbcd03a25	-0.02541835
129	0x3d153c74	0.036434606
130	0x3df4e4a9	0.11957676
131	0xbc819358	-0.01581733
132	0xba707993	-0.00091733894
133	0x3d1b136f	0.03786033
134	0x3cb77193	0.022393024
135	0x3cf4d760	0.029887855
136	0x3cdc1a12	0.0268679
137	0x3cb3c672	0.021945212
138	0x3dba0c94	0.0908443
139	0x3b2b5ba2	0.0026147147
140	0x3d6f1cc2	0.058377035
141	0x3da273da	0.07932253
142	0xbc37bddd	-0.0112147005
143	0x3d113a32	0.03545589
144	0x3cb42d37	0.021994216
145	0xbd62406c	-0.05523722
146	0xbc9e8336	-0.019349676
147	0xbd92ae9e	-0.07162212
148	0x3d857f68	0.065184414
149	0xbbace0b3	-0.0052758097
150	0x3b5ace23	0.0033387027
151	0xbb863fa1	-0.0040969406
152	0x3cee9921	0.029125752
153	0xbc2e865c	-0.010652151
154	0xbc87e322	-0.016587798
155	0x3c950308	0.018189922
156	0xbcd084de	-0.025453981
157	0x3cc4eb24	0.024037905
158	0xbd0aeae2	-0.033915408
159	0xbc5cc140	-0.013473809
160	0xbb3c2713	-0.0028709813
161	0x3bf50df0	0.007478468
162	0xbd7d5094	-0.061844423
163	0x3d0ad4f9	0.033894513
164	0xbd8a7ca6	-0.06762056
165	0xbc4c73f2	-0.012478815
166	0xbd839cbe	-0.064263806
167	0xbd99f0b1	-0.07516611
168	0x3bc232b0	0.0059264526
169	0x3c24a8fe	0.0100500565
170	0xbd0902a4	-0.033449784
171	0xbcbdc24e	-0.02316394
172	0x3d2b30ce	0.04179459
173	0x3cc96068	0.024582103
174	0xbd661e86	-0.056181453
175	0xbdabc570	-0.083872676
176	0xbc8992bf	-0.016793607
177	0xbda866f5	-0.082227625
178	0xbc8ce4ca	-0.017198939
179	0xbda9b340	-0.08286142
180	0xbb1baaec	-0.0023753
181	0x3cb8e95d	0.022572214
182	0x3d67c24b	0.056581777
183	0x3d310d7d	0.043225754
184	0xbd64bc90	-0.05584389
185	0x3cb5324a	0.022118706
186	0xbdc83971	-0.09776581
187	0x3d39b352	0.04533703
188	0xbc9083a8	-0.017640904
189	0xbba251d9	-0.0049536047
190	0x3c7fcb6f	0.015612467
191	0xbc841057	-0.016121073
192	0xbbbf13f8	-0.005831238
193	0x3d3b3b1c	0.045710668
194	0x3c0829a1	0.008310706
195	0x3c65a0e7	0.014015413
196	0xbbcaa08b	-0.006183689
197	0xbca21dec	-0.019789658
198	0x3d8429f3	0.06453314
199	0x3d1edfd8	0.038787693
200	0xbd06d153	-0.03291447
201	0xbdaaa4b1	-0.08332194
202	0xbc9bbb75	-0.019010285
203	0x3cfd9dda	0.030959059
204	0xbce90a24	-0.028447218
205	0xbca470f1	-0.020073386
206	0x3d8c2868	0.068436444
207	0xbde36099	-0.11102409
208	0xbd394441	-0.045231108
209	0xbd14f9e0	-0.036371112
210	0x3d2e9de6	0.042631052
211	0xbdae92e8	-0.08524114
212	0x3d5e16b6	0.054220878
213	0x3c62fbe0	0.013853997
214	0x3c963b79	0.018338906
215	0xbdac5ca1	-0.08416105
216	0xbccf883f	-0.025333522
217	0x3cb627c5	0.02223576
218	0xbd325260	-0.04353559
219	0xbb46145d	-0.003022454
220	0x3d940eac	0.07229361
221	0x3d3fab89	0.046794448
222	0x3d9e9b51	0.07744468
223	0x3d81ed37	0.06344073
224	0x3df7e6ee	0.12104593
225	0x3c8532c4	0.016259558
226	0x3d8280c0	0.06372213
227	0x3d26d3e0	0.040729403
228	0xbbcc4fba	-0.00623509
229	0xbd6e9e3e	-0.05825638
230	0x3d4129ce	0.04715901
231	0xbd22f347	-0.03978279
232	0xbd68e668	-0.056860358
233	0xbd7e37f5	-0.062065084
234	0x3ca21af8	0.01978825
235	0xbb91f2dc	-0.004454
236	0xbd952cda	-0.072839454
237	0xbd0989e6	-0.033578776
238	0x3cbd72e3	0.023126071
239	0xbcebef11	-0.02880052
240	0xbcf80b38	-0.030278787
241	0xbc099024	-0.008396182
242	0x3d68b8ca	0.056816854
243	0xbc97fb5e	-0.018552478
244	0xbd3acddd	-0.045606483
245	0xbc9655b0	-0.018351406
246	0xbd02bb98	-0.031917185
247	0x3d76c4e4	0.060246363
248	0xbcc82384	-0.024430998
249	0x3cf332a6	0.029687237
250	0x3d5f73fb	0.054553967
251	0xbcc8a962	-0.02449483
252	0x3db33dab	0.087519966
253	0x3da1e121	0.07904268
254	0x3df62991	0.12019647
255	0x3d68c2f7	0.056826558

actor_l3.bias f4 [32]
0	0xbd91dd91	-0.071223386
1	0xbcc7c046	-0.024383675
2	0xbcccece8	-0.02501531
3	0xbd9d319f	-0.0767548
4	0xbd04f1ad	-0.032457042
5	0xbd2f8802	-0.042854317
6	0xbc9d745f	-0.01922053
7	0xbc2fbac4	-0.010725681
8	0xbd01c030	-0.031677425
9	0xbd133562	-0.03593958
10	0xbcd449b0	-0.025914043
11	0xbde20c21	-0.1103747
12	0x3cbfa8bf	0.023395894
13	0xbca4195f	-0.02003163
14	0xbc25e5f8	-0.01012563
15	0xbcca6fcb	-0.02471151
16	0xbdc2186c	-0.09477314
17	0xbe0bddb8	-0.13658798
18	0x3ca5ec48	0.02025427
19	0xbd73570d	-0.05940919
20	0xbd4063a1	-0.046970014
21	0xbcce2c17	-0.025167508
22	0xbd209566	-0.039204977
23	0xbdf4fccd	-0.119622804
24	0xbde83402	-0.11338045
25	0xbd0ed699	-0.034872625
26	0xbd614d0a	-0.05500511
27	0xbd12bdb6	-0.035825454
28	0xbda980c8	-0.08276516
29	0xbd25f1c5	-0.040513773
30	0xbd35dad0	-0.04439813
31	0xbc90cee1	-0.017676773

critic_l3.weight f4 [32, 256, 2, 2]
0	0xbd8823cf	-0.06647455
1	0xbde0b852	-0.10972656
2	0x3d30857e	0.043096058
3	0xbdb73b76	-0.08946888
4	0xbd8407fd	-0.06446836
5	0xbcb8299d	-0.02248078
6	0xbd43d5f9	-0.047811482
7	0xbdc9b33b	-0.098486386
8	0x3a226b25	0.00061957753
9	0xbbaa2d3f	-0.005193382
10	0x3c90d908	0.017681614
11	0x3afd4c20	0.0019325055
12	0xbc8d25d3	-0.01722995
13	0x3cebbb39	0.028775798
14	0xbcb49d27	-0.022047592
15	0xbcee3829	-0.029079514
16	0x3d012c29	0.031536255
17	0xbdb48238	-0.088139
18	0xbd352650	-0.04422599
19	0xbd872fe1	-0.06600929
20	0xbd03a57f	-0.03214025
21	0xbda47f84	-0.08032134
22	0xbd676ee1	-0.056502227
23	0x3a62424e	0.0008631096
24	0x3c67baaa	0.014143625
25	0x3d4fa64c	0.050695702
26	0x3d4725a2	0.048619874
27	0xbc76d4b3	-0.01506536
28	0x3db07396	0.08615796
29	0xbd3786dd	-0.04480635
30	0x3b1c37ed	0.0023837045
31	0x3d8514bb	0.06498095
32	0xbd7a3635	-0.061086852
33	0x3b3302d3	0.0027314916
34	0xbc0ac288	-0.008469231
35	0xbd04f2c8	-0.032458097
36	0xbca6cd19	-0.02036147
37	0xbd03c818	-0.032173246
38	0xbd343ae1	-0.044001464
39	0xbd90c41d	-0.07068656
40	0xbdd4701d	-0.103729464
41	0xbc197f88	-0.009368785
42	0xbc22f39b	-0.009945775
43	0xbc939736	-0.018016439
44	0xbd817da5	-0.06322793
45	0x3b54b092	0.0032453877
46	0xbc75df28	-0.015006818
47	0x3d3c868b	0.046026748
48	0xbcfecb77	-0.031102879
49	0xbc22f4ee	-0.009946091
50	0xbab04c74	-0.0013450519
51	0x3c3366fb	0.010949845
52	0x3c3b7793	0.011442083
53	0xbd5bc8a2	-0.053658135
54	0xbcd7af7a	-0.026328791
55	0xbcfff6dd	-0.031245643
56	0xbdd2266b	-0.10261234
57	0xbd5f3f45	-0.054503698
58	0xbc33bfb4	-0.010970999
59	0xbd3acd86	-0.04560616
60	0x3af15fe0	0.0018415414
61	0x3aa5df00	0.001265496
62	0xbd10afc3	-0.03532387
63	0xbb9abe08	-0.0047223605
64	0x3c00c4a3	0.007859382
65	0x3ab422f4	0.0013743327
66	0x3b1e30c5	0.0024137956
67	0x3b7864fd	0.003790199
68	0xbd7c6ab3	-0.061625194
69	0x3dc54613	0.09632506
70	0x3aa19164	0.0012326655
71	0x3df10e9b	0.11770364
72	0xbdaeaf66	-0.08529548
73	0x3d5eeb06	0.054423355
74	0x3cb6c1ee	0.02230927
75	0xbd05b42e	-0.032642536
76	0x3d149854	0.036278084
77	0x3c8bb8e8	0.017055944
78	0x3d581b44	0.052760378
79	0x3bb03ee3	0.0053785904
80	0xbd6086bf	-0.054816004
81	0xbe1cf6b7	-0.15328489
82	0xbd3476eb	-0.04405872
83	0x3d85c955	0.06532542
84	0xbd6a331f	-0.05717766
85	0x3da7e384	0.08197692
86	0x3bba2ac2	0.0056813667
87	0x3c4844d1	0.012223438
88	0xbc8940d2	-0.016754542
89	0xbd8da29a	-0.069157794
90	0xbd81d951	-0.06340278
91	0xbd648502	-0.05579091
92	0xbc4bcd7d	-0.012439129
93	0xbd5fc058	-0.054626793
94	0xbc069f62	-0.008216711
95	0x3cc36b0c	0.023854755
96	0xbd0bca21	-0.034128312
97	0xbd315d04	-0.043301597
98	0xbc0b4f7a	-0.008502835
99	0x3c294702	0.010331871
100	0x3c8c962b	0.01716145
101	0x3b32debd	0.0027293407
102	0x3c262b18	0.01014211
103	0xbc65a6fe	-0.014016865
104	0x3cbe0894	0.02319745
105	0xbd5b468d	-0.05353408
106	0xbc60b4b9	-0.013714963
107	0x3b24ab8c	0.0025126664
108	0xbc5e8090	-0.013580456
109	0x3aeb283e	0.001794107
110	0xbd19823a	-0.03747771
111	0xbdbafff7	-0.09130853
112	0x3cdaa686	0.026690733
113	0xbd93be0b	-0.07213982
114	0x3d4cfd3e	0.050046198
115	0x3d177afe	0.03698253
116	0xbd257c40	-0.040401697
117	0x3cfc2898	0.030781075
118	0x3ccc22a2	0.024918858
119	0x3a729c1e	0.00092548307
120	0xbcfff523	-0.03124482
121	0x3c83cbe1	0.016088428
122	0xbca04744	-0.019565232
123	0xbd474aa4	-0.048655167
124	0x3c88335f	0.016626058
125	0x3c574879	0.013139837
126	0x3c97a9da	0.018513609
127	0x3b6b9757	0.003594836
128	0x3b35cbaf	0.0027739813
129	0xbcdaf6d2	-0.026729021
130	0x3cbe238e	0.023210313
131	0xbdc2347b	-0.09482666
132	0xbdf072ce	-0.11740647
133	0x3d05f3cf	0.032703217
134	0xbd5d097f	-0.053964134
135	0x3d71ab6d	0.059001375
136	0xbc4373a3	-0.011929425
137	0xbc7feb6a	-0.015620092
138	0x3c8c463d	0.017123336
139	0xbd706f02	-0.058699615
140	0xbce09f80	-0.027419806
141	0x3d6c1f3a	0.057646967
142	0xbd66757d	-0.05626439
143	0x3d92a74c	0.071608156
144	0x3cde9dee	0.027174916
145	0x3d321c1a	0.04348383
146	0x3bf93ce0	0.007606134
147	0xbd54cf62	-0.05195559
148	0xbc4bfea2	-0.012450846
149	0xbdb59167	-0.08865624
150	0xbd5b4a64	-0.05353774
151	0x3d8b3348	0.067968905
152	0xbbfdb6bb	-0.0077427304
153	0xbc85a21c	-0.016312651
154	0x3c676266	0.014122581
155	0xbc809bef	-0.015699355
156	0x3bc92e51	0.0061395545
157	0x3b8d9ed5	0.004321913
158	0x3c9d94b7	0.019235952
159	0x3c532fae	0.012889786
160	0xbd16cd7e	-0.036817066
161	0xbbc5a645	-0.0060317838
162	0x3d0c5087	0.034256484
163	0x3dc10da0	0.09426427
164	0xbda43421	-0.08017755
165	0xbd056c5f	-0.032574054
166	0x3ad9da80	0.0016620904
167	0x3d41c164	0.047303572
168	0x3d0cbcbd	0.034359682
169	0x3d29adae	0.0414254
170	0xbbb70327	-0.0055850926
171	0xbc504a24	-0.012712989
172	0x3d20224c	0.039095208
173	0xbd5e5d03	-0.05428792
174	0x3b8ee637	0.00436094
175	0xbcfc0686	-0.03076483
176	0xbd4fdfda	-0.05075059
177	0xbb04f0ad	-0.0020285056
178	0x3bb6ff23	0.005584614
179	0x3da3e25b	0.08002158
180	0xbda38c9c	-0.079858035
181	0xbd2c8153	-0.04211552
182	0xbdfa5561	-0.12223316
183	0x3da7e75c	0.08198425
184	0x3d4c709f	0.04991209
185	0x3d8f9532	0.070108786
186	0x3d1ccca0	0.038281083
187	0x3d1574f5	0.036488492
188	0xbb79b096	-0.0038099638
189	0x3be3249b	0.006931854
190	0xbc391e4f	-0.01129873
191	0xbd01a275	-0.03164907
192	0x3b488b91	0.0030600766
193	0xbdb64eba	-0.08901735
194	0xbd40608c	-0.046967074
195	0xbc4c5ef5	-0.012473811
196	0xbdff8f64	-0.124785215
197	0xbc1fec05	-0.009760861
198	0xbca12d92	-0.01967505
199	0x3cb761b7	0.022385461
200	0xbd798f7f	-0.060927864
201	0xbca36c14	-0.019948997
202	0xbd3b5670	-0.04573673
203	0x3c8d36ab	0.017237982
204	0xbcb5535b	-0.022134474
205	0xbc2e66c6	-0.01064462
206	0x3c232230	0.009956881
207	0xbc043030	-0.008068129
208	0xbcc2afb3	-0.02376542
209	0xbd6b89b0	-0.057504356
210	0xbd0ef166	-0.034898184
211	0xbd8524dd	-0.06501172
212	0x3c0fb794	0.008771796
213	0xbd88e70b	-0.06684693
214	0xbc95009d	-0.018188769
215	0xbd2b4ca4	-0.041821137
216	0x3ca49e73	0.020095086
217	0xbbcc90bf	-0.006242841
218	0x3d349bbc	0.044093832
219	0xbe058358	-0.13038385
220	0x3da9dd40	0.08294153
221	0x3db26b44	0.087118655
222	0x3d98b5d4	0.07456556
223	0xbd3c4ec4	-0.045973554
224	0xbce75e7c	-0.028243296
225	0xbcf16b07	-0.02946998
226	0xbd8e8858	-0.06959599
227	0xbd350ffb	-0.044204693
228	0x3d91853b	0.0710549
229	0xbb60500c	-0.00342274
230	0xbc113107	-0.008861787
231	0xbd881dd2	-0.06646313
232	0xbcbb5a7b	-0.022870293
233	0x3cab756c	0.020930015
234	0xbad51a12	-0.001625838
235	0xbd0e5dae	-0.03475731
236	0xbd0934be	-0.033497564
237	0xbc9ffe09	-0.019530313
238	0x3ba56f3d	0.005048661
239	0xbc600f72	-0.013675557
240	0x3d0ec1d6	0.034852825
241	0x3ca30d4c	0.019903801
242	0x3d3918d4	0.045189694
243	0xbd31ef37	-0.043441024
244	0x3c26031d	0.010132578
245	0xbc91bcca	-0.017790217
246	0xbb9891a1	-0.004656032
247	0xbc65b224	-0.014019523
248	0xbc186b9b	-0.009302999
249	0xbba779f6	-0.0051109744
250	0xbbaf4b45	-0.005349549
251	0x3b5f1269	0.0034038073
252	0xbd7fc017	-0.06243905
253	0xbbbbf99a	-0.005736542
254	0xbc85e59f	-0.016344843
255	0x3c528bf7	0.012850753

critic_l3.bias f4 [32]
0	0xbb567656	-0.0032724342
1	0xbcff2b07	-0.031148447
2	0xbd8e0b1e	-0.06935714
3	0x3d7fb17f	0.062425133
4	0x3da1124e	0.078648195
5	0x3b8d7512	0.0043169344
6	0xbd2e8377	-0.042605843
7	0x3cdc51d0	0.02689448
8	0xbcecff4c	-0.028930329
9	0xbd8a47cf	-0.06751978
10	0x3ca52d23	0.020163124
11	0xbc58e925	-0.01323918
12	0x3da29470	0.079384685
13	0x3aa0eabf	0.0012276991
14	0xbd2b3739	-0.04180071
15	0xbc29cd83	-0.010363939
16	0xbd98ca29	-0.07460434
17	0xbd13b41e	-0.036060445
18	0x3c081574	0.008305896
19	0xbd5827b2	-0.05277223
20	0xbda3c3e8	-0.079963505
21	0xbd06f768	-0.03295079
22	0x3d2e5b6a	0.042567648
23	0x3d834deb	0.06411346
24	0x3c4c4c78	0.012469403
25	0x3d624453	0.05524094
26	0xbda098b1	-0.078416236
27	0xbd573f46	-0.052550577
28	0x3d659887	0.056053665
29	0xbd7eed89	-0.06223825
30	0xbcd631f0	-0.026146859
31	0x3c21daa1	0.009878785

actor_out.weight f4 [4, 640]
0	0x3d190693	0.037359785
1	0xbc521a6a	-0.01282368
2	0xbc30e3e1	-0.010796518
3	0x3ce3fe86	0.027831327
4	0xbd526c16	-0.05137261
5	0xbcce082e	-0.025150385
6	0xbc00781a	-0.007841134
7	0x3c98f1ae	0.01866993
8	0xbd03bb08	-0.03216079
9	0xbd57e737	-0.052710738
10	0xbc83fdb5	-0.016112188
11	0xbcd94754	-0.02652327
12	0x3d6564b9	0.05600426
13	0xbd3f1039	-0.04664633
14	0xbd369eeb	-0.04458515
15	0x3b12c556	0.0022395453
16	0x3d8d5e9f	0.06902813
17	0x3dac2bbc	0.08406779
18	0xbc7e0233	-0.015503454
19	0xbccb67e3	-0.02482981
20	0x3d98f0c0	0.074677944
21	0x3d61fb44	0.055171266
22	0x3ce60e03	0.028082853
23	0x3ce69a4d	0.028149748
24	0xbd1c5a99	-0.03817234
25	0xbd4a9305	-0.049456615
26	0x3c8ba3eb	0.017045936
27	0x3db9c007	0.090698294
28	0x39822a0f	0.00024826868
29	0xbc3e241b	-0.011605288
30	0x3cfd2ef4	0.030906178
31	0xbcffecd1	-0.031240853
32	0xbd1d3edd	-0.03839003
33	0x3c509ba0	0.012732416
34	0x3b3f333c	0.0029174825
35	0x3c5588ec	0.013033133
36	0x3ce1b9af	0.027554361
37	0x3b363b35	0.0027806286
38	0xbd0d3f64	-0.034484282
39	0xbd75de84	-0.06002666
40	0xbdd3b0af	-0.10336434
41	0x3d3f015a	0.04663215
42	0xbb728425	-0.0037005034
43	0x3af85730	0.0018946882
44	0xbdc72822	-0.097244516
45	0x3c635260	0.01387462
46	0xbc1fd3a2	-0.009755047
47	0x3c86b104	0.01644183
48	0x3d1ba4cf	0.03799897
49	0x3b9f50ac	0.0048619118
50	0xbd98f007	-0.074676566
51	0xbc214688	-0.009843476
52	0xbd58f37e	-0.052966587
53	0xbba0eb45	-0.004910859
54	0x3c384b99	0.011248493
55	0x3d98df55	0.07464472
56	0xbc3d8913	-0.011568326
57	0xbe09467d	-0.13405795
58	0xbdcd0b3d	-0.10011909
59	0x3d81f7c4	0.06346086
60	0xbe3ffff3	-0.1874998
61	0x3e35a008	0.17736828
62	0x3da84d3f	0.082178585
63	0x3c21bc0b	0.009871493
64	0xbcb1bbf7	-0.021696074
65	0x3e32405a	0.1740736
66	0xbc71621e	-0.014732866
67	0x3c8f5ba2	0.017499749
68	0xbd6b7a83	-0.057489883
69	0x3d7bf572	0.06151337
70	0x3d4ca7f7	0.04996487
71	0x3d312aa1	0.043253545
72	0x3d8bbf4f	0.068235986
73	0xbd8f959b	-0.07010957
74	0xbe1fbb05	-0.15598686
75	0x3d687a8b	0.05675749
76	0xbd691dcf	-0.056913193
77	0xbd917f6d	-0.07104383
78	0xbc0624a5	-0.008187448
79	0x3da91ab2	0.08257045
80	0x3c7180ce	0.014740182
81	0x3c807dc3	0.015684968
82	0xbd8c75ac	-0.06858382
83	0x3d63858d	0.055547286
84	0x3d265eb6	0.040617667
85	0x3d0c19dc	0.03420435
86	0x3ca124f1	0.019670935
87	0xbd61aad1	-0.055094544
88	0x3bc62e36	0.0060479892
89	0x3ded2141	0.11578608
90	0x3d1a2649	0.037634168
91	0xbdec6d09	-0.11544234
92	0xbd60ed19	-0.054913614
93	0x3c9125fd	0.01771831
94	0x3d1c6248	0.038179666
95	0x3d043a66	0.032282256
96	0xbe0d29d2	-0.13785484
97	0xbe916f5c	-0.28405273
98	0x3d5e1a59	0.054224346
99	0x3e5acdd9	0.21367587
100	0x3d62cf85	0.055373687
101	0xbc9b2739	-0.018939601
102	0x39f1c192	0.00046111323
103	0x3b311fed	0.0027027086
104	0xbd8babc8	-0.06819874
105	0xbe09a091	-0.13440157
106	0x3c68dcb5	0.014212777
107	0x3d0a44a2	0.03375686
108	0x3c5b46de	0.013383595
109	0x3b19fce3	0.002349668
110	0x3d2935d2	0.041311093
111	0xbaa1c8a3	-0.001234312
112	0x3cd1c83e	0.025608178
113	0xbd3592f3	-0.044329595
114	0x3aef3bcd	0.0018252075
115	0x3c332ed5	0.010936459
116	0xbd9f0a40	-0.07765627
117	0xbd6fabec	-0.058513567
118	0xbd4a0353	-0.049319576
119	0xbdc7adcf	-0.09749948
120	0xbd4f522e	-0.050615482
121	0x3cdf3890	0.02724865
122	0x3cc6275d	0.024188692
123	0x3c8f19a8	0.017468289
124	0x3ca18fab	0.019721827
125	0xbcc858f2	-0.024456475
126	0x3ce7c136	0.028290372
127	0x3d102104	0.035187736
128	0x3c772252	0.015083866
129	0xbced4a67	-0.028966142
130	0xba131f7c	-0.00056122965
131	0xbd037b92	-0.032100268
132	0x3ccaf1d4	0.024773516
133	0xbcc1f25a	-0.023675133
134	0xbc933fd0	-0.017974764
135	0xbdf24c2d	-0.118309356
136	0xbdad157a	-0.08451362
137	0xbdadb675	-0.084820665
138	0xbd48f4cf	-0.049061593
139	0xbd984c54	-0.074364334
140	0x3d778fee	0.060439996
141	0xbcedbb18	-0.029019877
142	0x3db6b466	0.08921127
143	0x3d26d931	0.040734474
144	0x3dd5f9fa	0.1044807
145	0xbece1e1c	-0.40257347
146	0x3cf38798	0.029727742
147	0x3c02be44	0.007979933
148	0x3c3056a4	0.010762844
149	0x3bef2034	0.00729754
150	0x3d3a0d2b	0.045422714
151	0x3b86c802	0.0041131983
152	0xbd848da5	-0.06472329
153	0xbd4e679f	-0.05039179
154	0x3d5ec324	0.05438532
155	0x3e497ad9	0.19675769
156	0x3d8214ee	0.06351648
157	0x3ddac4aa	0.10682042
158	0xbe05e66f	-0.13076185
159	0xbe540885	-0.20706375
160	0xbbe0346c	-0.0068421867
161	0x3c9e7339	0.019342052
162	0xbcb7b0c5	-0.022423157
163	0xbd628afc	-0.055308327
164	0x3d1add74	0.03780885
165	0xbb15b66d	-0.002284433
166	0x3cd24051	0.025665434
167	0x3cf20b79	0.029546486
168	0x3da468c7	0.08027797
169	0x3d0a8b9f	0.03382456
170	0xbda5bd96	-0.08092801
171	0xbd824c49	-0.063622065
172	0xbd2e8774	-0.042609647
173	0x3bf07d85	0.007339182
174	0x3dbd10fa	0.09231754
175	0xbcf4176d	-0.029796327
176	0xbc411a7b	-0.011786099
177	0xbd55aedb	-0.05216871
178	0x3d2943f5	0.041324575
179	0xbc2241b3	-0.009903359
180	0xbd8ca043	-0.06866505
181	0x3cc1148f	0.023569373
182	0x3c7d4988	0.015459426
183	0xbba052af	-0.004892669
184	0x3b3bc6fd	0.0028652542
185	0x3b13a724	0.0022530043
186	0xbc3a6a34	-0.01137786
187	0xbdca8e99	-0.098904796
188	0x3d113b4d	0.035456944
189	0xbc70dc41	-0.01470095
190	0xbcf449aa	-0.029820282
191	0xbc1ee14a	-0.009697268
192	0x3c973204	0.018456466
193	0x3d54cba2	0.051952012
194	0x3dc46473	0.09589472
195	0xbd447312	-0.047961302
196	0xbb0b3801	-0.0021243098
197	0xbc1bb094	-0.009502549
198	0x3d28ef0a	0.04124359
199	0x3d9d7a3a	0.076893285
200	0xbdf03bca	-0.11730154
201	0x3c07ccad	0.008288545
202	0xbd6755c2	-0.05647827
203	0xbc2c324b	-0.010510038
204	0x3cff6a8d	0.031178737
205	0xbdf5ee97	-0.12008398
206	0xbce37a4d	-0.027768278
207	0x3c11d2a0	0.008900315
208	0xbcaa9b52	-0.020826016
209	0x3d3d7393	0.0462528
210	0x3db43e4f	0.08800947
211	0xbce2230d	-0.027604604
212	0x3c93fd3c	0.018065087
213	0xbd826151	-0.06366218
214	0x3d6d392c	0.05791585
215	0xbd99aac8	-0.07503277
216	0xbdaefe0e	-0.08544551
217	0xbb2ae2f4	-0.0026075216
218	0xbce37e04	-0.02777005
219	0x3cdb95b7	0.026804788
220	0xbc05cf5f	-0.008167117
221	0x3b92439d	0.0044636265
222	0x3dc6dace	0.097097024
223	0x3d03f834	0.032219127
224	0xbca3cb21	-0.01999432
225	0x3d95c6a4	0.07313278
226	0x3d12775e	0.03575837
227	0x3c01cdeb	0.00792263
228	0x3ce39c18	0.027784392
229	0x3bc293c0	0.0059380233
230	0x3dff7a34	0.1247448
231	0x3cbf9da3	0.023390597
232	0xbd8de370	-0.06928146
233	0x3c8c7858	0.017147228
234	0x3c4f3101	0.012645961
235	0x3da65713	0.08122077
236	0xbda26ada	-0.079305366
237	0xbe33ea96	-0.17569956
238	0xbe618f2e	-0.22027275
239	0x3e6978cc	0.22799987
240	0x3e140c7c	0.14457887
241	0xbcabbf7d	-0.020965332
242	0x3cb0152f	0.021494476
243	0xbc3a6227	-0.01137594
244	0xbda0e796	-0.078566715
245	0x3d1aa574	0.037755445
246	0x3cf6f843	0.030147677
247	0x3d42e13c	0.04757808
248	0xbd7f5227	-0.062334206
249	0x3d99b76f	0.0750569
250	0x3d482817	0.048866358
251	0xbd03e7cc	-0.03220348
252	0x3cc0c480	0.023531199
253	0x3d89be15	0.067257084
254	0xbd4c88b8	-0.049935073
255	0x3cee0445	0.02905477

actor_out.bias f4 [4]
0	0xbc2f2d77	-0.010691992
1	0x3d30894e	0.043099694
2	0xbd1f527c	-0.038897023
3	0x3cadfad6	0.021237772
